…
izer='he_normal'))\n","model_2.add(Dropout(0.2))\n","model_2.add(layers.Dense(6, activation=\"softmax\"))\n","\n","# complie the model\n","model_2.compile(loss='categorical_crossentropy',optimizer='adam',metrics=['accuracy'])  \n","\n","model_2.summary()\n","    \n"],"execution_count":57,"outputs":[{"output_type":"stream","text":["Model: \"sequential_1\"\n","_________________________________________________________________\n","Layer (type)                 Output Shape              Param #   \n","=================================================================\n","dense_4 (Dense)              (None, 1024)              16384     \n","_________________________________________________________________\n","dense_5 (Dense)              (None, 512)               524800    \n","_________________________________________________________________\n","dense_6 (Dense)              (None, 128)               65664     \n","_________________________________________________________________\n","dropout (Dropout)            (None, 128)               0         \n","_________________________________________________________________\n","dense_7 (Dense)              (None, 6)                 774       \n","=================================================================\n","Total params: 607,622\n","Trainable params: 607,622\n","Non-trainable params: 0\n","_________________________________________________________________\n"],"name":"stdout"}]},{"cell_type":"code","metadata":{"id":"tTduNGee5mDY","colab_type":"code","colab":{"base_uri":"https://localhost:8080/","height":1000},"executionIn
…
ht":443},"executionInfo":{"status":"ok","timestamp":1599541598912,"user_tz":-330,"elapsed":867,"user":{"displayName":"Natarajan srivathsan","photoUrl":"","userId":"01777520557029697561"}},"outputId":"004c6002-3071-4aae-dc1d-cff62a9a8117"},"source":["model.summary()"],"execution_count":76,"outputs":[{"output_type":"stream","text":["Model: \"sequential_2\"\n","_________________________________________________________________\n","Layer (type)                 Output Shape              Param #   \n","=================================================================\n","embedding (Embedding)        (None, 60, 500)           1128500   \n","_________________________________________________________________\n","spatial_dropout1d (SpatialDr (None, 60, 500)           0         \n","_________________________________________________________________\n","bidirectional (Bidirectional (None, 60, 1000)          4004000   \n","_________________________________________________________________\n","dense_8 (Dense)              (None, 60, 256)           256256    \n","_________________________________________________________________\n","dropout_1 (Dropout)          (None, 60, 256)           0         \n","_________________________________________________________________\n","global_max_pooling1d (Global (None, 256)               0         \n","_________________________________________________________________\n","flatten (Flatten)            (None, 256)               0         \n","_________________________________________________________________\n","dense_9 (Dense)              (None, 6)                 1542      \n","=================================================================\n","Total params: 5,390,298\n","Trainable params: 5,390,298\n","Non-trainable params: 0\n","_________________________________________________________________\n"],"name":"stdout"}]},{"cell_type":"code","metadata":{"id":"AxC5nsfUS5yv","colab_type":"code","colab":{"base_uri":"https://localhost:8080/","height":390},"execution
…
57-45f8-cc71-cf5ab4d73758"},"source":["# Compile the model with an optimizer\n","adam_opt=tensorflow.keras.optimizers.Adam(beta_1=0.7,beta_2=0.99)\n","model_b.compile(optimizer='adam',loss=\"categorical_crossentropy\", metrics=[\"accuracy\"])\n","model_b.summary()"],"execution_count":100,"outputs":[{"output_type":"stream","text":["Model: \"sequential_4\"\n","_________________________________________________________________\n","Layer (type)                 Output Shape              Param #   \n","=================================================================\n","embedding_2 (Embedding)      (None, 60, 500)           15261000  \n","_________________________________________________________________\n","spatial_dropout1d_2 (Spatial (None, 60, 500)           0         \n","_________________________________________________________________\n","bidirectional_2 (Bidirection (None, 60, 1000)          4004000   \n","_________________________________________________________________\n","dense_13 (Dense)             (None, 60, 512)           512512    \n","_________________________________________________________________\n","dropout_4 (Dropout)          (None, 60, 512)           0         \n","_________________________________________________________________\n","dense_14 (Dense)             (None, 60, 256)           131328    \n","_________________________________________________________________\n","dropout_5 (Dropout)          (None, 60, 256)           0         \n","_________________________________________________________________\n","global_max_pooling1d_2 (Glob (None, 256)               0         \n","_________________________________________________________________\n","flatten_2 (Flatten)          (None, 256)               0         \n","_________________________________________________________________\n","dense_15 (Dense)             (None, 6)                 1542      \n","=================================================================\n","Total params: 19,910,382\n","Trainable params: 19,910,382\n","Non-trainable params: 0\n","_________________________________________________________________\n"],"name":"stdout"}]},{"cell_type":"code","metadata":{"id":"E3bevhCVb8BQ","colab_type":"code","colab":{"base_uri":"https://localhost:8080/","height":390},"executi
…
,"model_NN_E.add(GlobalMaxPool1D())\n","model_NN_E.add(Flatten())\n","model_NN_E.add(layers.Dense(6, activation=\"softmax\"))\n","\n","\n","model_NN_E.compile(optimizer='adam',loss=\"categorical_crossentropy\", metrics=[\"accuracy\"])\n","\n","model_NN_E.summary()"],"execution_count":111,"outputs":[{"output_type":"stream","text":["Model: \"sequential_5\"\n","_________________________________________________________________\n","Layer (type)                 Output Shape              Param #   \n","=================================================================\n","embedding_3 (Embedding)      (None, 60, 500)           1128500   \n","_________________________________________________________________\n","spatial_dropout1d_3 (Spatial (None, 60, 500)           0         \n","_________________________________________________________________\n","bidirectional_3 (Bidirection (None, 60, 1000)          4004000   \n","_________________________________________________________________\n","dense_16 (Dense)             (None, 60, 1024)          1025024   \n","_________________________________________________________________\n","dense_17 (Dense)             (None, 60, 512)           524800    \n","_________________________________________________________________\n","dense_18 (Dense)             (None, 60, 128)           65664     \n","_________________________________________________________________\n","dense_19 (Dense)             (None, 60, 64)            8256      \n","_________________________________________________________________\n","dropout_6 (Dropout)          (None, 60, 64)            0         \n","_________________________________________________________________\n","global_max_pooling1d_3 (Glob (None, 64)                0         \n","_________________________________________________________________\n","flatten_3 (Flatten)          (None, 64)                0         \n","_________________________________________________________________\n","dense_20 (Dense)             (None, 6)                 390       \n","=================================================================\n","Total params: 6,756,634\n","Trainable params: 6,756,634\n","Non-trainable params: 0\n","_________________________________________________________________\n"],"name":"stdout"}]},{"cell_type":"code","metadata":{"id":"8cUzaCg7dlkw","colab_type":"code","colab":{"base_uri":"https://localhost:8080/","height":390},"executio
…
MaxPool1D())\n","#model_Att.add(Flatten())\n","model_Att.add(layers.Dense(6, activation=\"softmax\"))\n","\n","\n","model_Att.compile(optimizer='adam',loss=\"categorical_crossentropy\", metrics=[\"accuracy\"])\n","\n","model_Att.summary()\n","    \n","\n","\n","\n"],"execution_count":123,"outputs":[{"output_type":"stream","text":["Model: \"sequential_6\"\n","_________________________________________________________________\n","Layer (type)                 Output Shape              Param #   \n","=================================================================\n","embedding_4 (Embedding)      (None, 60, 500)           1128500   \n","_________________________________________________________________\n","spatial_dropout1d_4 (Spatial (None, 60, 500)           0         \n","_________________________________________________________________\n","bidirectional_4 (Bidirection (None, 60, 200)           480800    \n","_________________________________________________________________\n","attention (attention)        (None, 200)               260       \n","_________________________________________________________________\n","dense_21 (Dense)             (None, 1024)              205824    \n","_________________________________________________________________\n","dense_22 (Dense)             (None, 512)               524800    \n","_________________________________________________________________\n","dense_23 (Dense)             (None, 128)               65664     \n","_________________________________________________________________\n","dropout_7 (Dropout)          (None, 128)               0         \n","_________________________________________________________________\n","dense_24 (Dense)             (None, 6)                 774       \n","=================================================================\n","Total params: 2,406,622\n","Trainable params: 2,406,622\n","Non-trainable params: 0\n","_________________________________________________________________\n"],"name":"stdout"}]},{"cell_type":"code","metadata":{"id":"L6DHVml6qBux","colab_type":"code","colab":{"base_uri":"https://localhost:8080/","height":1000},"executi
…
layName":"Natarajan srivathsan","photoUrl":"","userId":"01777520557029697561"}},"outputId":"f2df1b7c-bc19-49c4-c856-a7d831fda6c5"},"source":["model_Emb.compile(optimizer='adam',loss=\"categorical_crossentropy\", metrics=[\"accuracy\"])\n","\n","model_Emb.summary()"],"execution_count":140,"outputs":[{"output_type":"stream","text":["Model: \"sequential_7\"\n","_________________________________________________________________\n","Layer (type)                 Output Shape              Param #   \n","=================================================================\n","embedding_5 (Embedding)      (None, 60, 200)           451400    \n","_________________________________________________________________\n","spatial_dropout1d_5 (Spatial (None, 60, 200)           0         \n","_________________________________________________________________\n","bidirectional_5 (Bidirection (None, 60, 40)            35360     \n","_________________________________________________________________\n","dropout_8 (Dropout)          (None, 60, 40)            0         \n","_________________________________________________________________\n","attention_1 (attention)      (None, 40)                100       \n","_________________________________________________________________\n","dense_25 (Dense)             (None, 64)                2624      \n","_________________________________________________________________\n","dropout_9 (Dropout)          (None, 64)                0         \n","_________________________________________________________________\n","dense_26 (Dense)             (None, 6)                 390       \n","=================================================================\n","Total params: 489,874\n","Trainable params: 489,874\n","Non-trainable params: 0\n","_________________________________________________________________\n"],"name":"stdout"}]},{"cell_type":"code","metadata":{"id":"GTkNNvT31uMt","colab_type":"code","colab":{"base_uri":"https://localhost:8080/","height":1000},"executionIn
…
